data.pth (torch, 5015 bytes, 6 tensors)

l1.weight f4 [8, 54]
00000000: eb5c 993e afad 89be d7a0 bfbe 6030 ca3e
00000010: fcea b13e cc3e 10bf 00ba a83c ff87 8bbe
00000020: a1d1 e9be 5558 6dbe 1c98 0b3f fe87 2ebe
00000030: e7c7 5a3e 03c1 81be 6711 17be cd13 dabd
00000040: 6c34 0b3f ba34 10bf 87ba e93e 2931 1f3f
00000050: c32e d63e 806b 3c3f 28b0 0d3f 17eb d83e
00000060: 1c91 a0be bf64 ab3e cdce f43e 0d2a 3ebe
00000070: 33c5 bc3e 1e22 94be 0c7c a3be 0013 99be
00000080: c18b 9e3e e16f 9fbe d7f1 3cbe e8b4 ccbd
00000090: bead c93e 5c25 adbe 65d3 87bd 0860 02be
000000a0: 24eb b6be 68f0 153f 40a6 2ebe c9f1 e4bc
000000b0: 1e69 87be 5369 50be 0cee 593f 11c6 993e
000000c0: 1c16 f13e 4ad4 193f 3120 b2bd a0d7 883e
000000d0: 2977 2dbd 5d94 363e 2a17 5cbd fe91 05bc
000000e0: 8a29 aebd 9108 ecbd fdfa 98bc efc2 be3c
000000f0: 2858 f3bd 3f6d 7bbd 116d 013e 3688 edbc
00000100: 3d24 84bc d0f7 023e 512a 41bd ca47 8abc
00000110: 8fd7 fe3d fb25 94bd da22 ae3d 9d57 adbd
00000120: b6da d13d b7bb 7bbd 514a a5bd 0af0 c9bd
00000130: b09c 133d db2b 543d 2700 0abd 3a54 343d
00000140: e335 4dbd 1457 54b9 af9c 30bb ed26 03be
00000150: fd6c e0bd b91a f0bd ac40 8f3d 0c9b f7bc
00000160: e4c0 b9bd 3342 b83b dedb 793c 419f d1bd
00000170: ab13 1c3d a1cd 493d 9f70 af3c cdde 12bd
00000180: 3883 95bd 4bee b53d 035e 94bd 2a06 2ebc
00000190: b2c9 483d ddc4 b03c 0027 563d d300 e83d
000001a0: 75dd ea3d 464e 7fbd 45aa 71bd 0982 2ebd
000001b0: 7046 003e 3580 383f d404 f83e 9488 cc3e
000001c0: 48d4 d53e 3ce2 fe3e 7480 d53e 7924 f23e
000001d0: a992 ae3e 40b9 ae3e cdf8 c53e f013 b4be
000001e0: d65d 083e 8a47 a4be 7f36 2a3f bf05 6abe
000001f0: 6503 0d3f 4c11 f23e 4aa2 b8be 15c8 c43e
00000200: 0a6e ab3d 30f1 db3e adcc 123f 85ef 7a3e
00000210: 987e fe3d 4474 693e ddb5 99be e952 593f
00000220: 0741 61bd f7bf 453f d3a5 333e 1655 dfbe
00000230: c19d 503e 8f35 b93e d0d2 353f b98f 84be
00000240: dccc ccbd a4b0 5b3e f5d1 a33e 11d5 9f3e
00000250: 20bc f43d 584d efbe c017 b4be ca38 143f
00000260: 8814 51bd c351 2b3f 79cb acbe a0c0 063c
00000270: 7f6f 4a3e 3f80 0cbf c366 aabe aded 8cbe
00000280: e380 683e ae84 a53e 2e4b 1dbe 2009 c4be
00000290: 9e21 d3bd 22f3 f53e eb4d 0e3f ed03 a8be
000002a0: f799 523e 6fee 30be fd38 a0bd 1f7d 61be
000002b0: 2175 063f 0df3 003f 1440 ea3e f8b0 fe3e
000002c0: 1e88 06be 1dcb 113f 942b b63e 015a 5fbe
000002d0: 2939 d53e 1175 253f 0d94 4fbe 3f42 393f
000002e0: b84f 2f3f 6f24 2c3f 16ea c33e 8ac1 fc3e
000002f0: 2083 cf3e 3bc1 adbe de3e 5b3e 0fea 1dbe
00000300: f297 f8bd e152 203f d1f8 66bd 0a5b e3bd
00000310: e7a2 89bc d9f8 fc3e 26d0 9c3e c39d ee3c
00000320: 6507 233e d0b0 0a3d ba19 18be 5ef3 f43e
00000330: aefa 943e b1c4 babd 89e3 b43e 9583 9dbd
00000340: 5041 2abf 8f80 a5be f19a d13e c0da a23e
00000350: 6779 103f ddc7 d33e 9361 4c3d 0d1a e63d
00000360: 08b2 4fbe ae3e 92be f991 bfbd 9b3f 893e
00000370: b167 a53e 40be 3dbe f9be 39be 9490 15be
00000380: 50ed 87be 1044 acbe f0d4 b23e b28f 143f
00000390: 0b37 f53d f007 003f 0151 83be 71b9 cb3e
000003a0: 9961 a83e a1f2 64be 431e 4a3e 036b 513f
000003b0: e22b 48be affe 353f 6868 533f 58bc fb3e
000003c0: 1da0 483e a5ee 9b3e ce51 d13e f30a 92be
000003d0: 77d0 a63d 9ebb 28be 5de3 493d 7eee 033f
000003e0: 38aa 71bd a4ba d9bd 0f89 83be 5440 b03e
000003f0: 0145 e73d 9640 a9be 98bc 9bbd e98e b9bd
0.29953703 -0.26890323 -0.374274 0.39490032 0.3474959 -0.5634582 0.020596504 -0.27252194
-0.45667747 -0.23178227 0.54528975 -0.17044064 0.21365319 -0.2534257 -0.14752732 -0.10648308
0.54376864 -0.56330454 0.45650122 0.6218439 0.4183255 0.7360153 0.5534692 0.4236686
-0.3136071 0.334753 0.47814026 -0.18570729 0.368692 -0.2893228 -0.31930578 -0.29897308
0.30966 -0.31140044 -0.1845163 -0.09995443 0.39390367 -0.33817565 -0.06632117 -0.12731946
-0.35726273 0.58569956 -0.17055607 -0.027947323 -0.26447386 -0.20352678 0.85128856 0.30033925
0.4708718 0.6008955 -0.08697546 0.2672701 -0.042349968 0.17830034 -0.05373303 -0.008152483
-0.08504017 -0.115250714 -0.018674368 0.023286311 -0.11882049 -0.061383482 0.12639262 -0.028995614
-0.016130561 0.12789845 -0.047159497 -0.016879935 0.12443458 -0.07233807 0.08502741 -0.084639765
0.10246794 -0.061458316 -0.08070815 -0.09860237 0.0360381 0.051799636 -0.03369155 0.044025637
-0.05010022 -0.00020250335 -0.002694886 -0.12807818 -0.10958288 -0.11723847 0.06994757 -0.0302253
-0.09069994 0.005623126 0.015250174 -0.102354534 0.038104694 0.04926837 0.021416007 -0.03585701
-0.073004186 0.088833414 -0.07244494 -0.010621587 0.049020477 0.021578247 0.052283287 0.11328282
0.11468021 -0.062330507 -0.059000272 -0.04260448 0.1252687 0.7207063 0.48441184 0.3994795
0.4176352 0.49781978 0.41699564 0.4729345 0.34096268 0.3412571 0.38666382 -0.3517146
0.13317046 -0.3208583 0.66489404 -0.22853754 0.55083305 0.4727882 -0.36061317 0.384339
0.08370598 0.4295745 0.5734356 0.24505432 0.124264896 0.22798258 -0.30021563 0.84892136
-0.054993656 0.7724604 0.17543726 -0.43619603 0.20372678 0.36173674 0.710248 -0.25890902
-0.10000011 0.21454102 0.31996122 0.31217244 0.119499445 -0.46738696 -0.3517437 0.57899153
-0.05104497 0.66921633 -0.33748987 0.008224636 0.19769095 -0.5488319 -0.33281526 -0.27525082
0.22705416 0.3232779 -0.1536071 -0.38288212 -0.10309146 0.48037058 0.55587643 -0.32815495
0.20566545 -0.17278455 -0.0782337 -0.22020386 0.52522475 0.50370866 0.45752013 0.4974439
-0.13137862 0.5695055 0.35580122 -0.21811678 0.41645172 0.64631754 -0.2027132 0.7236671
0.68481016 0.67243093 0.3826453 0.4936641 0.40529728 -0.33936486 0.214107 -0.15421318
-0.12138356 0.62626463 -0.056389634 -0.11101349 -0.01680131 0.49408606 0.30627555 0.029127961
0.1592079 0.033860028 -0.14853564 0.47841924 0.29097503 -0.09119547 0.35329846 -0.07691113
-0.6650591 -0.32324645 0.40938523 0.31807518 0.56435245 0.4136342 0.04989774 0.112354375
-0.20282757 -0.28563446 -0.09354014 0.2680634 0.32305673 -0.18529606 -0.18139257 -0.14605933
-0.26548243 -0.33645678 0.34928083 0.5803176 0.11973389 0.5001211 -0.2564774 0.39789918
0.3288696 -0.2235818 0.19738106 0.8180391 -0.1954799 0.7109174 0.82581186 0.49167132
0.19592328 0.3045551 0.40882725 -0.2852398 0.0814523 -0.1647782 0.049289096 0.51535785
-0.059000224 -0.10631302 -0.25690505 0.34424078 0.11292458 -0.33057088 -0.07604331 -0.09060461

l1.bias f4 [8]
00000000: ed3b 103f 9cca 08be 2a27 6a3f 56ee 2d3f
00000010: c31e 293f 8d86 723f e468 063f 5752 bb3e
0.5634144 -0.1335854 0.9146601 0.67941797 0.66062564 0.9473656 0.525038 0.36586258

l2.weight f4 [8, 8]
00000000: 539b 113d e6b3 93be 3b5f 243f ec99 5c3d
00000010: 8e7e 4ebf 9e2b 20be 7bae 6e3f c9d0 453f
00000020: 2377 323f 1c5e 133d 4dcd 333f aa53 133f
00000030: 6295 653f 8ddf 213f 52b8 67bf b0c3 a1bf
00000040: 670d 1c3f 2c54 fc3d 80ad 073f efef d2be
00000050: 362d 31bf 6724 2abd ea38 963f 89b2 34bf
00000060: e5a3 153f e3c9 a83e 06de d93d b4ab 4e3f
00000070: dc84 5f3f 8cef cabe 7674 b0be ae54 a03f
00000080: cc94 36bf 1a26 98be 335a 6ebf 260b 333f
00000090: a5dd 7b3f 061d ecbe fe5b c43d 30d0 263f
000000a0: 5c3a a53f e908 a7bb b946 0cbe 14b7 223f
000000b0: cb83 153f 2f71 b4be d2bc 6e3f 818b 78bd
000000c0: 61d2 ba3f 21ea 89bd 0a25 f0bc 8d90 fa3e
000000d0: c16a 193f 3bd6 b4be 6ec9 a63f 2b68 77be
000000e0: b930 2cbf 71ee 67bd 8ee1 ab3f 0521 053f
000000f0: 79bf aa3e 196f c23f 99a8 73bf 18c7 c43e
0.03554852 -0.2884819 0.6420781 0.05385773 -0.8066186 -0.15641639 0.93234986 0.77271706
0.6971304 0.03597842 0.7023514 0.57549536 0.89681065 0.63231736 -0.90515625 -1.2637844
0.6095795 0.12320742 0.52999115 -0.4119868 -0.6920961 -0.041538622 1.1736119 -0.70584923
0.5845321 0.32966527 0.10638051 0.8073075 0.873121 -0.39635885 -0.34463853 1.2525842
-0.71320796 -0.2971657 -0.93106383 0.69938886 0.9838508 -0.46115893 0.095878586 0.6516142
1.2908435 -0.0050974977 -0.13698854 0.63560605 0.58404225 -0.35242602 0.93256867 -0.060679916
1.4595453 -0.0673411 -0.029314537 0.48938408 0.5992852 -0.35319695 1.3030221 -0.2416083
-0.67261845 -0.05662388 1.3428209 0.5200351 0.33349207 1.5190154 -0.95179135 0.38433146

l2.bias f4 [8]
00000000: 0510 90be 5b92 2a3f f1f1 2bbe b333 3cbe
00000010: f403 203e c1b6 8e3e 644d 353e 677e 5b3f
-0.28137222 0.6662957 -0.16791512 -0.18379097 0.15626508 0.27873805 0.17705303 0.8573975

l3.weight f4 [7, 8]
00000000: 791f 88bf 676d 05bf 88e6 92bf 30b4 b93e
00000010: 2b68 4f3f b800 58bd b2ce afbd afb2 8ebe
00000020: 28f4 6f3f 0857 5fbe e78c 273f dc5f 9bbf
00000030: 8aee e6be 970e 5abf 0b5a abbe be34 a73e
00000040: 376e a7bf 7a33 093f 21f2 27bf ec04 adbf
00000050: 1110 e5be df25 b6bf acf7 9ebf 2a8d 713f
00000060: 2def a3bf ec37 123f 9837 34bf e3ff 883e
00000070: 9be8 45bf 18e8 143e 0cf6 993e d724 07be
00000080: ad82 953e 9ea0 13bf ac8c 60bf 442e d93e
00000090: 2201 adbd 69ec ce3e 5342 d83e 7d6f 93bf
000000a0: a914 993f c948 8ebf 1ee4 aabf 6c46 1e3f
000000b0: b77e 6dbf 6356 50bf 39b6 92bf 1f1d 1c3f
000000c0: e522 53be 4f61 bfbe 7028 7d3f be87 8ebf
000000d0: ab7c 5dbf 4d82 003f 6d9e 2e3f edfd 6abf
-1.0634605 -0.5212006 -1.1476603 0.36270285 0.8101832 -0.05273506 -0.08584346 -0.278707
0.9373193 -0.21810544 0.65449375 -1.2138629 -0.45103866 -0.8517851 -0.33467135 0.32657427
-1.308051 0.5359417 -0.65603834 -1.3517127 -0.4473882 -1.4230307 -1.2419333 0.94356024
-1.2807366 0.5711658 -0.7039733 0.26757726 -0.7730805 0.14541662 0.3007053 -0.13197647
0.2920126 -0.5766696 -0.8771465 0.4241811 -0.08447482 0.40414742 0.422381 -1.1518399
1.195943 -1.1115962 -1.3350866 0.61826205 -0.92771477 -0.81381816 -1.146186 0.60981935
-0.2061878 -0.37378928 0.9888983 -1.1135175 -0.86518353 0.50198823 0.6821049 -0.9179371

l3.bias f4 [7]
00000000: 05ff 10be 0d9c 46be 11ff 983e 7921 34be
00000010: 49eb cebe 71bf 84be 344b d63e
-0.14159782 -0.19395466 0.298821 -0.17590894 -0.40413883 -0.25927308 0.4185425
